Checkpoints/checkpt.pth.tar (torch_old, 123568 bytes, 4 tensors)

i2h.weight f4 [128, 228]
00000000: 44c3 233d cd6a 01bd e859 743d 10e2 00bc
00000010: 6af7 88bc d2a0 2b3d 102e a13c e023 14bd
00000020: 2af0 513d e898 793c 933b 7bbd 588f 0dbc
00000030: 6a9f 33bd 3e33 873d ce96 45bd b52d 62bd
00000040: 0646 36bd 80ce 56ba 2c13 7c3d f88a 783d
00000050: 5e3c 5bbd 78d2 7f3c 5677 57bd 01a5 85bd
00000060: dc23 743d ba08 a3bc 5c32 4bbc 2a1f 36bd
00000070: 0c11 cd3c 4864 bd3c c04b 4fbb d03b 933b
00000080: 58e9 3c3c 1c35 4ebc f8a2 debb dc51 3e3d
00000090: df9b 80bd d01c 803b 289d 693d 44a2 753d
000000a0: 9fd9 0cbd 7828 7bbc 80f3 a9bb 7dcf 1bbd
000000b0: 62f6 cebc 64ad d93c 4688 63bd d0a0 b8bc
000000c0: 802e 0a3a c0e8 cb3b 56ff 293d 1835 b6bc
000000d0: c02e 6ebc 3ec0 d4bc 1c91 9fbc fab0 863d
000000e0: e0ad 11bb a60d 8abc a824 03bd b6f2 a9bc
000000f0: 1e63 28bd 8c3d 163d f8a3 253c 2829 6d3c
00000100: 7418 2a3d fd92 86bd 2049 3fbd ce64 cebc
00000110: 18cb 6d3d 461c 223d 8886 22bd 3850 7c3d
00000120: c415 d53c d36c 83bd 5adb 663d 6056 563c
00000130: 680b febb 00e7 4c3c c88e b3bb cef4 3a3d
00000140: 489e 223d 389a da3c da61 a0bc f831 c83c
00000150: 502f b03b 0485 d63c 9ece 57bd 5033 76bb
00000160: f020 c73c 4ab1 063d 28d2 eabb f0f6 3bbd
00000170: 6fba 82bd 6009 62bd 3e79 76bd bc90 853d
00000180: ba0a 23bd baf4 243d 5e77 3a3d 3e41 6d3d
00000190: 6c00 f63c f2a7 29bd 88a8 df3c c20a 27bd
000001a0: c070 a7ba 8ce7 b63c 591c 01bd ca40 073d
000001b0: 1885 873c f21c 413d 449e 973c 54ba d53c
000001c0: c51c 3abd 9c8e 3d3d 1406 823d d695 b7bc
000001d0: ea5b 02bd d0d1 1ebd 74a0 813c 2e82 803d
000001e0: 2093 54bd f4a3 25bd 50a3 543d 0000 65b8
000001f0: dc76 a93c f460 fb3c 3c31 ed3c 2281 0c3d
00000200: 8c31 213d faee 5ebd 808e 88bc 007e 6db9
00000210: 4f29 04bd ac11 51bc b4d0 bfbc 808f 47ba
00000220: 7e60 83bd 1035 713d ec78 f0bc 5ec7 b9bc
00000230: e8aa 173c 0885 7c3d 80f4 e33a 2c88 debc
00000240: c403 263d dc4d 18bc 776b 60bd 5473 f7bc
00000250: c34e 52bd c02d 14bb 819d 1abd 089c 603d
00000260: e06e 98bc a49d 6abc ca83 073d b0e8 153d
00000270: 10a8 9e3b 90c5 883b e8db 41bd 0519 01bd
00000280: a2a0 31bd 985c 8cbc a2f6 513d 4ce6 7c3d
00000290: 1a19 09bd 1ed4 4e3d 20cf 613d d6b0 583d
000002a0: aea8 5d3d 4a6c 3c3d bc34 bb3c 68e4 35bd
000002b0: e5db 5ebd 9002 ccbb ac5e 6abc f937 72bd
000002c0: 7427 d03c 1239 1e3d 3879 e6bb 6e20 d6bc
000002d0: f823 57bd e038 8d3b ae42 1e3d 8936 84bd
000002e0: e06c 823b 53fb 69bd ad9f 85bd acc1 45bd
000002f0: beba 453d 5014 5abc b82b 873c 8a5c a0bc
00000300: 803f 2c3d c828 4dbc 28a1 9cbb 16f0 81bc
00000310: e4b1 833d 78fa e4bc 9c1e 533d b8c0 0abc
00000320: c0de 03bb dc85 b7bc 84c5 25bc 0639 02bd
00000330: 803e 543a e0b2 2dbc c8fd d6bc b2c2 66bd
00000340: c8e3 973c 90a6 a63c e0c1 f2bb 60d0 8a3c
00000350: 640d 1cbc e43f 0f3d 2e4f 80bc 2c4d b1bc
00000360: f4fd 42bc 6c51 1ebd 4645 673d 9c51 023d
00000370: a44e eabc fa01 d1bc c8a5 c03c 0cfa 0e3d
00000380: 2e07 acbc ca64 0cbd d01f b73c 9037 803c
00000390: b844 de3c c673 2b3d 4487 d7bc b95b 05bd
000003a0: 9a2b 5f3d 80e3 b9ba b28a 7bbd 3add 1d3d
000003b0: 70af 433c ba17 7ebd 24d2 26bc 300c 4a3c
000003c0: 1c67 123d 483a ea3c 40c6 1b3c 1301 03bd
000003d0: 1871 52bc 743e e43c c0ad a43a 685b 223c
000003e0: 52b9 683d a4ad 893c d83c 533d fec7 803d
000003f0: a2c2 d9bc 3482 20bd 4634 0e3d 8291 9cbc
0.03998114 -0.031595994 0.059656054 -0.0078663975 -0.016719539 0.041901417 0.019675285 -0.036167026
0.05125443 0.01523421 -0.06133611 -0.008640133 -0.0438532 0.066015705 -0.04823952 -0.05521937
-0.044500373 -0.0008194223 0.06154172 0.060679406 -0.053524368 0.0156141445 -0.052604042 -0.065256126
0.05960451 -0.019901622 -0.012402143 -0.044463314 0.025032543 0.023119107 -0.0031630844 0.004493214
0.011530243 -0.012585904 -0.0067943297 0.046464786 -0.0627973 0.0039096847 0.05703464 0.0599692
-0.034387227 -0.015329473 -0.005186498 -0.038039673 -0.025263969 0.026571937 -0.055549882 -0.022537619
0.0005271211 0.0062228143 0.041503273 -0.022242114 -0.014537513 -0.025970574 -0.019478373 0.06576724
-0.0022228882 -0.016852211 -0.03201738 -0.020745616 -0.04111015 0.03667979 0.010109894 0.014475144
0.041527227 -0.065710045 -0.046700597 -0.025194552 0.058055013 0.039577745 -0.03967908 0.06159994
0.026011355 -0.06417241 0.056361534 0.013082117 -0.0077528246 0.012506247 -0.0054796673 0.04564362
0.03970173 0.026684865 -0.01957791 0.02443789 0.005376734 0.026186474 -0.05268728 -0.0037567206
0.024307698 0.03288392 -0.007166166 -0.045889795 -0.06383216 -0.055184722 -0.06017422 0.065217465
-0.03980515 0.040272452 0.045523994 0.057923548 0.030029498 -0.04141993 0.027302042 -0.040781744
-0.0012774691 0.022327207 -0.031521175 0.033020772 0.016542956 0.047146745 0.018508084 0.026089825
-0.045437593 0.04627858 0.063488156 -0.022410315 -0.031825937 -0.03877431 0.01582358 0.0627483
-0.05189812 -0.04043956 0.05191356 -5.4597855e-05 0.02068656 0.03068588 0.02895414 0.03430284
0.039353892 -0.054427125 -0.016669512 -0.0002264902 -0.032265957 -0.012760561 -0.023414947 -0.0007612631
-0.06414889 0.058888495 -0.029354535 -0.022678073 0.009257056 0.061650306 0.0017391592 -0.027164541
0.040530935 -0.009295907 -0.054789986 -0.03020636 -0.051344644 -0.0022610277 -0.037747864 0.054836303
-0.018607557 -0.014319811 0.03308467 0.03659886 0.004841812 0.004173942 -0.04732886 -0.031518
-0.043366082 -0.017133996 0.051260598 0.061743066 -0.033471204 0.05049526 0.05512917 0.05290302
0.054115944 0.04600171 0.022852294 -0.04440728 -0.054408927 -0.0062258914 -0.014304798 -0.05913541
0.025409438 0.038628645 -0.0070334934 -0.02613851 -0.052524537 0.0043097585 0.03863781 -0.06455714
0.003980264 -0.057124447 -0.06524596 -0.048280403 0.048273794 -0.013310507 0.016500339 -0.019575376
0.042052746 -0.01252193 -0.0047799535 -0.015861552 0.06430414 -0.027951464 0.051542863 -0.008468799
-0.0020121783 -0.022402696 -0.010117892 -0.031792663 0.00080964714 -0.010601729 -0.02624406 -0.05633802
0.018541232 0.020343095 -0.0074083656 0.016945064 -0.009524677 0.03497304 -0.015662756 -0.021643244
-0.011901367 -0.03865187 0.05646255 0.03181611 -0.028601952 -0.025513638 0.02351655 0.034906432
-0.020999517 -0.034275807 0.022354037 0.015651494 0.027132377 0.041858457 -0.026309617 -0.032558177
0.05448494 -0.001418218 -0.061411567 0.038541056 0.011943683 -0.062034346 -0.010181937 0.012332007
0.035742864 0.028592244 0.009507716 -0.031983446 -0.012844346 0.027861811 0.0012563989 0.009909488
0.05681736 0.016806431 0.051571697 0.062881455 -0.026582066 -0.03918667 0.03471782 -0.019112352

i2h.bias f4 [128]
00000000: 806e 0d3d 2825 693d aa80 37bd 7c33 5abd
00000010: e2cf 083d 00ed 913b fa1f 10bd 946f d13c
00000020: 005e 823c a461 9bbc 7449 adbc 6486 a13c
00000030: 3c15 46bd 00b0 503c b874 e4bb 60da 943c
00000040: 200e 7d3d e067 9abb 3e06 93bc de4a 65bd
00000050: 0efe 273d aa49 52bd e6ba 3cbd 6511 00bd
00000060: 04db 35bd f088 04bd e0e4 473d 9869 d93c
00000070: 88cc 7ebd 9abd 95bc 8cd3 d93c 837e 21bd
00000080: 81fd 26bd 003c f139 50e4 01bc 7ce5 2bbd
00000090: e8ae 533d 74a3 d43c dc8d 1b3d 283d 523c
000000a0: 5f08 1abd bcde 133d 609e 193d dc19 82bc
000000b0: b0f4 3ebc b41e 5dbc 32ae efbc 7cb6 0ebd
000000c0: b0f4 ee3c 7873 d73c 02bb e6bc ace0 69bc
000000d0: 004a 3dba ae25 87bc 083e 513d c68a 68bd
000000e0: 287e 80bd 5c6d 31bc e046 293b 6fc5 0fbd
000000f0: 6c86 04bd 8a7d 0e3d 9337 85bd f619 b2bc
00000100: d8d8 d63c 5075 983b 10ce 273d 12cd 3abd
00000110: dbfa 16bd e4d7 333d 9cdf 363d fa6a 343d
00000120: c07a 85ba 5a42 6c3d aa38 bdbc 1e7d 24bd
00000130: d6b6 0abd 9007 36bd 08eb 2dbc ddea 1dbd
00000140: 14f0 40bc 63e6 2bbd a6dc 92bc ee97 833d
00000150: 0808 613c 7c2f 8a3c 9ce0 033d 9457 853d
00000160: b8ed b0bb 04f8 aabc 3a48 2bbd 3cd7 05bc
00000170: 78c4 973c def3 81bd 3062 233c db80 00bd
00000180: 04e4 dabc 4422 8b3c 84f4 d0bc d0d9 463c
00000190: 0eea 03bd 2c71 4cbd b0eb 71bd 60c8 0ebb
000001a0: e22e 0a3d a885 50bd e4a1 67bd d03c f4bb
000001b0: 4065 fa3c 9442 06bd c0c5 f1bb d96e 5bbd
000001c0: a4e4 633d 2c46 793d 24c6 f03c 1f02 6abd
000001d0: 888d df3c 18c2 513d 8864 303c 44c3 033d
000001e0: 40f0 be3b 3a07 53bd 08ac 0e3d 876d 37bd
000001f0: 287e 693d ab63 0ebd cecb 2d3d 9694 0d3d
0.03452921 0.0569202 -0.044800438 -0.053271756 0.033401377 0.0044533014 -0.035186745 0.0255659
0.015913963 -0.018967457 -0.02115319 0.019717403 -0.048360094 0.012737274 -0.006971922 0.018170536
0.06178105 -0.00471209 -0.017947312 -0.055979602 0.04101377 -0.051339783 -0.046076678 -0.03126659
-0.044398323 -0.032357156 0.048802257 0.026539609 -0.062206775 -0.018278886 0.026590131 -0.03942729
-0.040769104 0.00046011806 -0.007927969 -0.0419669 0.051680475 0.025956847 0.037977085 0.012831964
-0.03760564 0.036101088 0.037504554 -0.015881471 -0.011655018 -0.01349609 -0.029257867 -0.034842
0.02916941 0.026300177 -0.028165344 -0.014274757 -0.00072208047 -0.01649746 0.05108455 -0.05677297
-0.062740624 -0.010829296 0.0025829598 -0.035100397 -0.032354757 0.034787692 -0.065047406 -0.021740895
0.026226446 0.0046526566 0.040968 -0.045605727 -0.03686033 0.04390706 0.044646844 0.044047333
-0.0010183677 0.057680465 -0.023098309 -0.040158384 -0.033865772 -0.044440806 -0.010615118 -0.03855406
-0.011775989 -0.04196776 -0.017927479 0.06425463 0.013734825 0.016868345 0.032196626 0.06510845
-0.005399432 -0.020870216 -0.041816927 -0.008168992 0.0185263 -0.06345342 0.00997214 -0.031372886
-0.026720054 0.016984113 -0.02550722 0.0121368915 -0.032205634 -0.049912617 -0.05906266 -0.0021786913
0.033736117 -0.050908715 -0.056550875 -0.0074535385 0.030565858 -0.032778338 -0.00737831 -0.05357251
0.05563797 0.060857937 0.029391356 -0.05713093 0.027289167 0.051210493 0.010766156 0.03216864
0.00582698 -0.051520564 0.03483203 -0.044782188 0.057005078 -0.03476302 0.04243069 0.03456553

i2o.weight f4 [6, 228]
00000000: 58a9 40bd 56fc 403d eccd 11bc 3ecd 2c3d
00000010: a041 343b d036 b13c 10a2 933b 6073 53bd
00000020: 5c51 f4bc 80d3 883c 8c28 1abd a4e0 923c
00000030: a845 723d 78ae e8bc 6cd8 cdbc 8c3f 7f3d
00000040: fc3c 30bc 11c3 2fbd f289 413d 203a 00bd
00000050: 900d 0abc 2054 263d 52f9 a9bc b648 283d
00000060: c07a c7bb 58a5 5abd 1c7d 833c 6238 84bd
00000070: 5635 8cbc d061 f03b 1455 83bd a459 fd3c
00000080: aa10 debc 8a7e 17bd 7028 a03c 541a 123d
00000090: 6c79 32bd ea3c 553d 4205 423d ea97 273d
000000a0: e83a c53c 7ae5 4b3d 2047 66bc 74d2 653d
000000b0: 4086 a13b 22c0 193d 52f1 0cbd 88e6 423d
000000c0: d2e0 4e3d b831 c2bc be6a 4abd defb dabc
000000d0: 207c ef3b 80e9 413b 5404 3d3d a867 883c
000000e0: 2ead 2b3d 4ac4 51bd 00c0 5c3a ca1c 143d
000000f0: 262d 633d 3c65 de3c 5b0d 18bd d09a 46bd
00000100: 14e7 fa3c 0dd0 5ebd 708a 3e3c 7c2b 833d
00000110: c09a 0c3d 7eb5 67bd 3937 04bd 8633 11bd
00000120: 823f 98bc cc03 4fbd 8024 793c 069b cebc
00000130: 6814 01bc 3e14 23bd 60ee 9abc dc95 763d
00000140: b282 89bc 157b 84bd 002f a8bc b808 433c
00000150: 0027 2cbc d0a7 eb3b 2eee 413d 5819 18bd
00000160: dad8 cfbc cdf1 5ebd b299 31bd 1007 853d
00000170: b062 e53b 744d 22bc 6c42 803d fcae 5ebd
00000180: b469 5ebc 7feb 81bd da1e 1d3d b494 3ebd
00000190: be48 053d 6418 c43c 200d 6fbd 30b3 ddbc
000001a0: 1452 553d 7235 42bd d08e 063d 8e5a 653d
000001b0: 4010 cebc 6cba 7f3d 4ed8 b9bc 8cc8 e53c
000001c0: 5473 833c 1e21 4a3d 79d1 66bd 94b6 83bd
000001d0: 00dc ecb8 62b1 813d 5ad6 153d 7c16 7d3d
000001e0: c429 a03c dc2d 1bbd 405b a43c 72e3 1ebd
000001f0: a057 38bc 789c 693d 4e6a 07bd 509d 753c
00000200: 1610 5cbd b0bd 3abc ba40 37bd 2ad2 abbc
00000210: 382b 463c 7e45 6fbd 841c 80bc 80a7 4fba
00000220: 9404 0a3d d6de c3bc ec6c b6bc f0b0 cebb
00000230: f434 ccbc 2401 0bbd 0085 8039 68c0 4cbd
00000240: 7431 3d3d deaf 413d 8051 043a fe54 a9bc
00000250: 1cbb 2abd 00e3 0e3c fe1e 563d d482 1fbc
00000260: cc17 943c 92b1 003d e594 87bd 2622 99bc
00000270: 1254 0fbd 5edc 81bd 8455 7bbd ca4a 3cbd
00000280: fe7c 6c3d d86e 85bc ccd1 ba3c ce0c 093d
00000290: b0d5 9abc 4aff 31bd f335 44bd 4055 39bc
000002a0: d88d 2c3c b0b7 a23b e8f7 5d3c 3002 013d
000002b0: 808e 513a 5a82 843d f4c1 a63c 789c 223c
000002c0: 132b 01bd f640 613d 341d 35bd b535 81bd
000002d0: 4cf8 113d c617 573d 2b3c 64bd 1ed2 83bc
000002e0: c0dd 763d c0bd 81bd 5ea4 86bd ae2d 63bd
000002f0: b2e7 5cbd b4cb ddbc fcfe ba3c a8b8 3c3c
00000300: d824 2a3c dc31 013d 0a84 f3bc 20c1 70bb
00000310: 74db fd3c 9cc0 85bd 357e 05bd e421 54bd
00000320: e085 9d3b 0054 8f38 f49d b23c 801f fdbc
00000330: 6cf9 f6bc a84f b5bb 90ef e4bc 84ce 983c
00000340: 3c95 88bc a898 093c 2c5e 14bd 68ab 5bbd
00000350: 36c3 77bd 4098 2b3d 58cd 88bc 70c8 efbc
00000360: c8ff 193d ace1 a43c 6e13 0b3d 327b f8bc
00000370: 7101 5cbd 3697 7ebd 7c72 383d d46b 86bd
00000380: d878 183d c25c 81bd b851 ddbb 7833 6bbd
00000390: e0fe 7e3d 22ee 013d 682e 82bc 8088 d03b
000003a0: d84b 1a3c d468 74bd aec2 30bd 849d 62bd
000003b0: fbb2 09bd 123d 873d eaf0 92bc 3621 75bd
000003c0: 985d 83bd be9a 2b3d 8c01 6dbc bad1 383d
000003d0: 703e 763d 3884 57bd d80d dd3c ba61 9abc
000003e0: 4017 ce3a 14aa fa3c ba27 2a3d 4840 a4bb
000003f0: 6471 0a3d f093 6a3d e02d 47bd de1f 5f3d
-0.0470365 0.047115646 -0.008899193 0.04218792 0.0027504936 0.021632582 0.0045054033 -0.051623702
-0.029823951 0.016702414 -0.037636325 0.017929383 0.05914846 -0.028403506 -0.025127612 0.062316462
-0.010756727 -0.04291064 0.047250696 -0.031305432 -0.008426085 0.04060757 -0.020748768 0.041084968
-0.006087631 -0.05338034 0.016050868 -0.06456067 -0.017115276 0.007335879 -0.06412712 0.030926533
-0.027107555 -0.03698591 0.019550532 0.03566964 -0.04357283 0.052060045 0.047368295 0.04091636
0.02407594 0.049779393 -0.014055043 0.056108907 0.004929334 0.037536748 -0.03440983 0.047583133
0.050507374 -0.023705348 -0.049418204 -0.026731428 0.007308498 0.002958864 0.046146706 0.01665099
0.041913204 -0.051212586 0.0008420944 0.036160268 0.05546298 0.027147882 -0.03712211 -0.048487484
0.030627765 -0.05439763 0.011629686 0.06404778 0.03432727 -0.05656957 -0.032279227 -0.035449527
-0.01858497 -0.05054073 0.015206456 -0.025220405 -0.0078784 -0.039814226 -0.018912494 0.06020151
-0.016785953 -0.064687885 -0.020530224 0.011903934 -0.010507345 0.0071916357 0.047346286 -0.037133545
-0.025371958 -0.054429818 -0.043359466 0.06495488 0.00700029 -0.009906162 0.06262669 -0.054366097
-0.013575006 -0.063437454 0.0383595 -0.046528533 0.032540075 0.023937412 -0.058362126 -0.027062982
0.05208023 -0.04741425 0.03285104 0.055994563 -0.025154233 0.062433645 -0.02268615 0.02804973
0.016046204 0.04934799 -0.056352112 -0.064313084 -0.00011294335 0.06332661 0.036581375 0.06178902
0.019551165 -0.03788553 0.020063043 -0.038791128 -0.01125136 0.057033986 -0.033060364 0.0149911195
-0.05372628 -0.011397764 -0.044739462 -0.020974237 0.012095265 -0.058415882 -0.015638597 -0.0007921383
0.033695772 -0.023909967 -0.022268735 -0.0063077137 -0.024927594 -0.033936635 0.00024513155 -0.04998818
0.04618974 0.04728686 0.0005047545 -0.02067041 -0.041682348 0.008721113 0.05227565 -0.009735782
0.018077753 0.031419344 -0.06620196 -0.018693041 -0.034992285 -0.0634086 -0.06136085 -0.045969762
0.05773639 -0.016288206 0.022805117 0.033459477 -0.018900722 -0.043456353 -0.047903012 -0.011311829
0.010531865 0.004965745 0.013547875 0.031496227 0.00079939514 0.06470175 0.020356156 0.009925
-0.03153522 0.054993592 -0.044217303 -0.06309072 0.035637185 0.052512906 -0.055721443 -0.016091403
0.06027007 -0.0633502 -0.06574319 -0.055463485 -0.0539319 -0.027074672 0.022826664 0.011518635
0.010384761 0.03154169 -0.029726047 -0.0036736205 0.030988432 -0.06530878 -0.032591064 -0.051790133
0.004807219 6.8344176e-05 0.021803834 -0.03089881 -0.03014823 -0.0055331774 -0.027946264 0.018653162
-0.016672723 0.0083982125 -0.03622262 -0.053630263 -0.060488902 0.041893244 -0.016699478 -0.02927038
0.037597448 0.02012714 0.033954076 -0.030332182 -0.053712312 -0.062155925 0.045031056 -0.06563535
0.03722462 -0.0631652 -0.0067541264 -0.05742213 0.062254786 0.03172124 -0.015891269 0.0063639283
0.009417497 -0.059670284 -0.04315441 -0.055326 -0.033617955 0.06603445 -0.017937142 -0.059846126
-0.06414336 0.04189562 -0.014465701 0.045121886 0.06011814 -0.052616328 0.02698414 -0.018845428
0.0015723482 0.030598678 0.041541792 -0.0050125457 0.033799544 0.05726999 -0.048627734 0.05447375

i2o.bias f4 [6]
00000000: 88c2 443c 4a66 173d 8ca8 cd3c a02d d63b
00000010: 4055 36bc 88ae c93c
0.0120092705 0.036962785 0.025104783 0.0065362006 -0.011128724 0.024619356
